----------------------------------------------------------------
        Layer (type)               Output Shape         Param #
================================================================
            Conv2d-1         [-1, 64, 224, 224]           1,792
              ReLU-2         [-1, 64, 224, 224]               0
            Conv2d-3         [-1, 64, 224, 224]          36,928
              ReLU-4         [-1, 64, 224, 224]               0
         MaxPool2d-5         [-1, 64, 112, 112]               0
            Conv2d-6        [-1, 128, 112, 112]          73,856
              ReLU-7        [-1, 128, 112, 112]               0
            Conv2d-8        [-1, 128, 112, 112]         147,584
              ReLU-9        [-1, 128, 112, 112]               0
        MaxPool2d-10          [-1, 128, 56, 56]               0
           Conv2d-11          [-1, 256, 56, 56]         295,168
             ReLU-12          [-1, 256, 56, 56]               0
           Conv2d-13          [-1, 256, 56, 56]         590,080
             ReLU-14          [-1, 256, 56, 56]               0
           Conv2d-15          [-1, 256, 56, 56]         590,080
             ReLU-16          [-1, 256, 56, 56]               0
        MaxPool2d-17          [-1, 256, 28, 28]               0
           Conv2d-18          [-1, 512, 28, 28]       1,180,160
             ReLU-19          [-1, 512, 28, 28]               0
           Conv2d-20          [-1, 512, 28, 28]       2,359,808
             ReLU-21          [-1, 512, 28, 28]               0
           Conv2d-22          [-1, 512, 28, 28]       2,359,808
             ReLU-23          [-1, 512, 28, 28]               0
        MaxPool2d-24          [-1, 512, 14, 14]               0
           Conv2d-25          [-1, 512, 14, 14]       2,359,808
             ReLU-26          [-1, 512, 14, 14]               0
           Conv2d-27          [-1, 512, 14, 14]       2,359,808
             ReLU-28          [-1, 512, 14, 14]               0
           Conv2d-29          [-1, 512, 14, 14]       2,359,808
             ReLU-30          [-1, 512, 14, 14]               0
        MaxPool2d-31            [-1, 512, 7, 7]               0
================================================================
Total params: 14,714,688
Trainable params: 14,714,688
Non-trainable params: 0
----------------------------------------------------------------
Input size (MB): 0.57
Forward/backward pass size (MB): 218.39
Params size (MB): 56.13
Estimated Total Size (MB): 275.10
----------------------------------------------------------------
Files already downloaded and verified
…
__________________________________________________


classifier.0.weight
classifier.0.weight torch.Size([4096, 9751])
classifier.2.weight
classifier.2.weight torch.Size([10, 4096])
features.0.weight
features.2.weight
features.5.weight
features.7.weight
features.10.weight
features.12.weight
features.14.weight
features.17.weight
features.19.weight
features.21.weight
features.24.weight
features.26.weight
features.28.weight
----------------------------------------------------------------
        Layer (type)               Output Shape         Param #
================================================================
            Conv2d-1         [-1, 35, 224, 224]             980
              ReLU-2         [-1, 35, 224, 224]               0
            Conv2d-3         [-1, 36, 224, 224]          11,376
              ReLU-4         [-1, 36, 224, 224]               0
         MaxPool2d-5         [-1, 36, 112, 112]               0
            Conv2d-6         [-1, 68, 112, 112]          22,100
              ReLU-7         [-1, 68, 112, 112]               0
            Conv2d-8         [-1, 66, 112, 112]          40,458
              ReLU-9         [-1, 66, 112, 112]               0
        MaxPool2d-10           [-1, 66, 56, 56]               0
           Conv2d-11          [-1, 117, 56, 56]          69,615
             ReLU-12          [-1, 117, 56, 56]               0
           Conv2d-13          [-1, 116, 56, 56]         122,264
             ReLU-14          [-1, 116, 56, 56]               0
           Conv2d-15          [-1, 116, 56, 56]         121,220
             ReLU-16          [-1, 116, 56, 56]               0
        MaxPool2d-17          [-1, 116, 28, 28]               0
           Conv2d-18          [-1, 170, 28, 28]         177,650
             ReLU-19          [-1, 170, 28, 28]               0
           Conv2d-20          [-1, 167, 28, 28]         255,677
             ReLU-21          [-1, 167, 28, 28]               0
           Conv2d-22          [-1, 182, 28, 28]         273,728
             ReLU-23          [-1, 182, 28, 28]               0
        MaxPool2d-24          [-1, 182, 14, 14]               0
           Conv2d-25          [-1, 199, 14, 14]         326,161
             ReLU-26          [-1, 199, 14, 14]               0
           Conv2d-27          [-1, 193, 14, 14]         345,856
             ReLU-28          [-1, 193, 14, 14]               0
           Conv2d-29          [-1, 199, 14, 14]         345,862
             ReLU-30          [-1, 199, 14, 14]               0
        MaxPool2d-31            [-1, 199, 7, 7]               0
================================================================
Total params: 2,112,947
Trainable params: 2,112,947
Non-trainable params: 0
----------------------------------------------------------------
Input size (MB): 0.57
Forward/backward pass size (MB): 110.75
Params size (MB): 8.06
Estimated Total Size (MB): 119.38
----------------------------------------------------------------
Files already downloaded and verified
…
