----------------------------------------------------------------
        Layer (type)               Output Shape         Param #
================================================================
            Conv2d-1         [-1, 64, 224, 224]           1,792
              ReLU-2         [-1, 64, 224, 224]               0
            Conv2d-3         [-1, 64, 224, 224]          36,928
              ReLU-4         [-1, 64, 224, 224]               0
         MaxPool2d-5         [-1, 64, 112, 112]               0
            Conv2d-6        [-1, 128, 112, 112]          73,856
              ReLU-7        [-1, 128, 112, 112]               0
            Conv2d-8        [-1, 128, 112, 112]         147,584
              ReLU-9        [-1, 128, 112, 112]               0
        MaxPool2d-10          [-1, 128, 56, 56]               0
           Conv2d-11          [-1, 256, 56, 56]         295,168
             ReLU-12          [-1, 256, 56, 56]               0
           Conv2d-13          [-1, 256, 56, 56]         590,080
             ReLU-14          [-1, 256, 56, 56]               0
           Conv2d-15          [-1, 256, 56, 56]         590,080
             ReLU-16          [-1, 256, 56, 56]               0
        MaxPool2d-17          [-1, 256, 28, 28]               0
           Conv2d-18          [-1, 512, 28, 28]       1,180,160
             ReLU-19          [-1, 512, 28, 28]               0
           Conv2d-20          [-1, 512, 28, 28]       2,359,808
             ReLU-21          [-1, 512, 28, 28]               0
           Conv2d-22          [-1, 512, 28, 28]       2,359,808
             ReLU-23          [-1, 512, 28, 28]               0
        MaxPool2d-24          [-1, 512, 14, 14]               0
           Conv2d-25          [-1, 512, 14, 14]       2,359,808
             ReLU-26          [-1, 512, 14, 14]               0
           Conv2d-27          [-1, 512, 14, 14]       2,359,808
             ReLU-28          [-1, 512, 14, 14]               0
           Conv2d-29          [-1, 512, 14, 14]       2,359,808
             ReLU-30          [-1, 512, 14, 14]               0
        MaxPool2d-31            [-1, 512, 7, 7]               0
================================================================
Total params: 14,714,688
Trainable params: 14,714,688
Non-trainable params: 0
----------------------------------------------------------------
Input size (MB): 0.57
Forward/backward pass size (MB): 218.39
Params size (MB): 56.13
Estimated Total Size (MB): 275.10
----------------------------------------------------------------
Files already downloaded and verified
…
odict_keys(['classifier.1.weight', 'classifier.1.bias', 'features.0.weight', 'features.0.bias', 'features.2.weight', 'features.2.bias', 'features.5.weight', 'features.5.bias', 'features.7.weight', 'features.7.bias', 'features.10.weight', 'features.10.bias', 'features.12.weight', 'features.12.bias', 'features.14.weight', 'features.14.bias', 'features.17.weight', 'features.17.bias', 'features.19.weight', 'features.19.bias', 'features.21.weight', 'features.21.bias', 'features.24.weight', 'features.24.bias', 'features.26.weight', 'features.26.bias', 'features.28.weight', 'features.28.bias'])
----------------------------------------------------------------
        Layer (type)               Output Shape         Param #
================================================================
            Conv2d-1         [-1, 42, 224, 224]           1,176
              ReLU-2         [-1, 42, 224, 224]               0
            Conv2d-3         [-1, 37, 224, 224]          14,023
              ReLU-4         [-1, 37, 224, 224]               0
         MaxPool2d-5         [-1, 37, 112, 112]               0
            Conv2d-6         [-1, 89, 112, 112]          29,726
              ReLU-7         [-1, 89, 112, 112]               0
            Conv2d-8         [-1, 70, 112, 112]          56,140
              ReLU-9         [-1, 70, 112, 112]               0
        MaxPool2d-10           [-1, 70, 56, 56]               0
           Conv2d-11          [-1, 120, 56, 56]          75,720
             ReLU-12          [-1, 120, 56, 56]               0
           Conv2d-13          [-1, 101, 56, 56]         109,181
             ReLU-14          [-1, 101, 56, 56]               0
           Conv2d-15          [-1, 125, 56, 56]         113,750
             ReLU-16          [-1, 125, 56, 56]               0
        MaxPool2d-17          [-1, 125, 28, 28]               0
           Conv2d-18          [-1, 185, 28, 28]         208,310
             ReLU-19          [-1, 185, 28, 28]               0
           Conv2d-20          [-1, 201, 28, 28]         334,866
             ReLU-21          [-1, 201, 28, 28]               0
           Conv2d-22          [-1, 169, 28, 28]         305,890
             ReLU-23          [-1, 169, 28, 28]               0
        MaxPool2d-24          [-1, 169, 14, 14]               0
           Conv2d-25          [-1, 191, 14, 14]         290,702
             ReLU-26          [-1, 191, 14, 14]               0
           Conv2d-27          [-1, 182, 14, 14]         313,040
             ReLU-28          [-1, 182, 14, 14]               0
           Conv2d-29          [-1, 152, 14, 14]         249,128
             ReLU-30          [-1, 152, 14, 14]               0
        MaxPool2d-31            [-1, 152, 7, 7]               0
================================================================
Total params: 2,101,652
Trainable params: 2,101,652
Non-trainable params: 0
----------------------------------------------------------------
Input size (MB): 0.57
Forward/backward pass size (MB): 121.96
Params size (MB): 8.02
Estimated Total Size (MB): 130.55
----------------------------------------------------------------
Files already downloaded and verified
…
